Neural Network Tools for STM32AI v1.6.0 (STM.ai v7.1.0-RC3)
Created date          : 2022-06-16 22:54:48
Parameters            : validate --name network -m C:/Users/Administrator/Desktop/MCU-AI/Model/Fingerprint_Recognition_pytorch/pretrain_models/mobilenet_slim25-2.onnx --type onnx --compression 8 --verbosity 1 --workspace C:\Users\ADMINI~1\AppData\Local\Temp\mxAI_workspace504532829032767503224822923709404 --output C:\Users\Administrator\.stm32cubemx\network_output --mode stm32 --desc 115200

Exec/report summary (validate)
------------------------------------------------------------------------------------------------------------------------
model file            : C:\Users\Administrator\Desktop\MCU-AI\Model\Fingerprint_Recognition_pytorch\pretrain_models\mobilenet_slim25-2.onnx
type                  : onnx
c_name                : network
compression           : 8
workspace dir         : C:\Users\ADMINI~1\AppData\Local\Temp\mxAI_workspace504532829032767503224822923709404
output dir            : C:\Users\Administrator\.stm32cubemx\network_output
model_name            : mobilenet_slim252
model_hash            : fdb48dd061e6f78d8a5f05246590d6d7
input 1/1             : 'input_1'
                        12288 items, 48.00 KiB, ai_float, float, (1,3,64,64), domain:user/
output 1/1            : 'node_505'
                        100 items, 400 B, ai_float, float, (1,1,1,100), domain:user/
params #              : 121,628 items (475.11 KiB)
macc                  : 1,429,156
weights (ro)          : 486,512 B (475.11 KiB) (1 segment)
activations (rw)      : 50,960 B (49.77 KiB) (1 segment)
ram (total)           : 100,512 B (98.16 KiB) = 50,960 + 49,152 + 400

Model name - mobilenet_slim252 ['input_1'] ['node_505']
--------------------------------------------------------------------------------------------------------------------------------------------------------------
id   layer (type)                  oshape          param/size      macc      connected to    |   c_size             c_macc             c_type                
--------------------------------------------------------------------------------------------------------------------------------------------------------------
92   linear_weight (Placeholder)   (1,128,1,100)   12,800/51,200                             |   -51,200(-100.0%)                     
     linear_bias (Placeholder)     (1,1,1,100)     100/400                                   |   -400(-100.0%)                        
--------------------------------------------------------------------------------------------------------------------------------------------------------------
0    input_1 (Input)               (1,64,64,3)                                               |                                         transpose()[0]        
     node_506 (Conv2D)             (1,32,32,4)     112/448         110,596   input_1         |                      +17,408(+15.7%)    optimized_conv2d()[1] 
--------------------------------------------------------------------------------------------------------------------------------------------------------------
1    node_362 (Nonlinearity)       (1,32,32,4)                     8,192     node_506        |                      -8,192(-100.0%)   
--------------------------------------------------------------------------------------------------------------------------------------------------------------
2    node_363 (Pool)               (1,16,16,4)                     9,216     node_362        |                      -9,216(-100.0%)   
--------------------------------------------------------------------------------------------------------------------------------------------------------------
3    node_509 (Conv2D)             (1,16,16,24)    120/480         24,600    node_363        |                      +12,288(+50.0%)    conv2d()[3]           
--------------------------------------------------------------------------------------------------------------------------------------------------------------
4    node_366 (Nonlinearity)       (1,16,16,24)                    12,288    node_509        |                      -12,288(-100.0%)  
--------------------------------------------------------------------------------------------------------------------------------------------------------------
5    node_512 (Conv2D)             (1,16,16,24)    240/960         55,320    node_366        |                      +12,288(+22.2%)    conv2d()[4]           
--------------------------------------------------------------------------------------------------------------------------------------------------------------
6    node_369 (Nonlinearity)       (1,16,16,24)                    12,288    node_512        |                      -12,288(-100.0%)  
--------------------------------------------------------------------------------------------------------------------------------------------------------------
7    node_515 (Conv2D)             (1,16,16,6)     150/600         36,870    node_369        |                                         conv2d()[5]           
--------------------------------------------------------------------------------------------------------------------------------------------------------------
8    node_518 (Conv2D)             (1,16,16,6)     30/120          6,150     node_363        |                                         conv2d()[2]           
--------------------------------------------------------------------------------------------------------------------------------------------------------------
9    node_374 (Eltwise)            (1,16,16,6)                     1,536     node_515        |                                         eltwise()[6]          
                                                                             node_518        |  
--------------------------------------------------------------------------------------------------------------------------------------------------------------
10   node_521 (Conv2D)             (1,16,16,36)    252/1,008       55,332    node_374        |                      +18,432(+33.3%)    conv2d()[7]           
--------------------------------------------------------------------------------------------------------------------------------------------------------------
11   node_377 (Nonlinearity)       (1,16,16,36)                    18,432    node_521        |                      -18,432(-100.0%)  
--------------------------------------------------------------------------------------------------------------------------------------------------------------
12   node_524 (Conv2D)             (1,8,8,36)      360/1,440       20,772    node_377        |                      +4,608(+22.2%)     conv2d()[8]           
--------------------------------------------------------------------------------------------------------------------------------------------------------------
13   node_380 (Nonlinearity)       (1,8,8,36)                      4,608     node_524        |                      -4,608(-100.0%)   
--------------------------------------------------------------------------------------------------------------------------------------------------------------
14   node_527 (Conv2D)             (1,8,8,8)       296/1,184       18,440    node_380        |                                         conv2d()[9]           
--------------------------------------------------------------------------------------------------------------------------------------------------------------
15   node_530 (Conv2D)             (1,8,8,48)      432/1,728       24,624    node_527        |                      +6,144(+25.0%)     conv2d()[11]          
--------------------------------------------------------------------------------------------------------------------------------------------------------------
16   node_385 (Nonlinearity)       (1,8,8,48)                      6,144     node_530        |                      -6,144(-100.0%)   
--------------------------------------------------------------------------------------------------------------------------------------------------------------
17   node_533 (Conv2D)             (1,8,8,48)      480/1,920       27,696    node_385        |                      +6,144(+22.2%)     conv2d()[12]          
--------------------------------------------------------------------------------------------------------------------------------------------------------------
18   node_388 (Nonlinearity)       (1,8,8,48)                      6,144     node_533        |                      -6,144(-100.0%)   
--------------------------------------------------------------------------------------------------------------------------------------------------------------
19   node_536 (Conv2D)             (1,8,8,8)       392/1,568       24,584    node_388        |                                         conv2d()[13]          
--------------------------------------------------------------------------------------------------------------------------------------------------------------
20   node_539 (Conv2D)             (1,8,8,8)       72/288          4,104     node_527        |                                         conv2d()[10]          
--------------------------------------------------------------------------------------------------------------------------------------------------------------
21   node_393 (Eltwise)            (1,8,8,8)                       512       node_536        |                                         eltwise()[14]         
                                                                             node_539        |  
--------------------------------------------------------------------------------------------------------------------------------------------------------------
22   node_542 (Conv2D)             (1,8,8,48)      432/1,728       24,624    node_393        |                      +6,144(+25.0%)     conv2d()[15]          
--------------------------------------------------------------------------------------------------------------------------------------------------------------
23   node_396 (Nonlinearity)       (1,8,8,48)                      6,144     node_542        |                      -6,144(-100.0%)   
--------------------------------------------------------------------------------------------------------------------------------------------------------------
24   node_545 (Conv2D)             (1,4,4,48)      480/1,920       6,960     node_396        |                      +1,536(+22.1%)     conv2d()[16]          
--------------------------------------------------------------------------------------------------------------------------------------------------------------
25   node_399 (Nonlinearity)       (1,4,4,48)                      1,536     node_545        |                      -1,536(-100.0%)   
--------------------------------------------------------------------------------------------------------------------------------------------------------------
26   node_548 (Conv2D)             (1,4,4,16)      784/3,136       12,304    node_399        |                                         conv2d()[17]          
--------------------------------------------------------------------------------------------------------------------------------------------------------------
27   node_551 (Conv2D)             (1,4,4,96)      1,632/6,528     24,672    node_548        |                      +3,072(+12.5%)     conv2d()[19]          
--------------------------------------------------------------------------------------------------------------------------------------------------------------
28   node_404 (Nonlinearity)       (1,4,4,96)                      3,072     node_551        |                      -3,072(-100.0%)   
--------------------------------------------------------------------------------------------------------------------------------------------------------------
29   node_554 (Conv2D)             (1,4,4,96)      960/3,840       13,920    node_404        |                      +3,072(+22.1%)     conv2d()[20]          
--------------------------------------------------------------------------------------------------------------------------------------------------------------
30   node_407 (Nonlinearity)       (1,4,4,96)                      3,072     node_554        |                      -3,072(-100.0%)   
--------------------------------------------------------------------------------------------------------------------------------------------------------------
31   node_557 (Conv2D)             (1,4,4,16)      1,552/6,208     24,592    node_407        |                                         conv2d()[21]          
--------------------------------------------------------------------------------------------------------------------------------------------------------------
32   node_560 (Conv2D)             (1,4,4,16)      272/1,088       4,112     node_548        |                                         conv2d()[18]          
--------------------------------------------------------------------------------------------------------------------------------------------------------------
33   node_412 (Eltwise)            (1,4,4,16)                      256       node_557        |                                         eltwise()[22]         
                                                                             node_560        |  
--------------------------------------------------------------------------------------------------------------------------------------------------------------
34   node_563 (Conv2D)             (1,4,4,96)      1,632/6,528     24,672    node_412        |                      +3,072(+12.5%)     conv2d()[24]          
--------------------------------------------------------------------------------------------------------------------------------------------------------------
35   node_415 (Nonlinearity)       (1,4,4,96)                      3,072     node_563        |                      -3,072(-100.0%)   
--------------------------------------------------------------------------------------------------------------------------------------------------------------
36   node_566 (Conv2D)             (1,4,4,96)      960/3,840       13,920    node_415        |                      +3,072(+22.1%)     conv2d()[25]          
--------------------------------------------------------------------------------------------------------------------------------------------------------------
37   node_418 (Nonlinearity)       (1,4,4,96)                      3,072     node_566        |                      -3,072(-100.0%)   
--------------------------------------------------------------------------------------------------------------------------------------------------------------
38   node_569 (Conv2D)             (1,4,4,16)      1,552/6,208     24,592    node_418        |                                         conv2d()[26]          
--------------------------------------------------------------------------------------------------------------------------------------------------------------
39   node_572 (Conv2D)             (1,4,4,16)      272/1,088       4,112     node_412        |                                         conv2d()[23]          
--------------------------------------------------------------------------------------------------------------------------------------------------------------
40   node_423 (Eltwise)            (1,4,4,16)                      256       node_569        |                                         eltwise()[27]         
                                                                             node_572        |  
--------------------------------------------------------------------------------------------------------------------------------------------------------------
41   node_575 (Conv2D)             (1,4,4,96)      1,632/6,528     24,672    node_423        |                      +3,072(+12.5%)     conv2d()[29]          
--------------------------------------------------------------------------------------------------------------------------------------------------------------
42   node_426 (Nonlinearity)       (1,4,4,96)                      3,072     node_575        |                      -3,072(-100.0%)   
--------------------------------------------------------------------------------------------------------------------------------------------------------------
43   node_578 (Conv2D)             (1,4,4,96)      960/3,840       13,920    node_426        |                      +3,072(+22.1%)     conv2d()[30]          
--------------------------------------------------------------------------------------------------------------------------------------------------------------
44   node_429 (Nonlinearity)       (1,4,4,96)                      3,072     node_578        |                      -3,072(-100.0%)   
--------------------------------------------------------------------------------------------------------------------------------------------------------------
45   node_581 (Conv2D)             (1,4,4,24)      2,328/9,312     36,888    node_429        |                                         conv2d()[31]          
--------------------------------------------------------------------------------------------------------------------------------------------------------------
46   node_584 (Conv2D)             (1,4,4,24)      408/1,632       6,168     node_423        |                                         conv2d()[28]          
--------------------------------------------------------------------------------------------------------------------------------------------------------------
47   node_434 (Eltwise)            (1,4,4,24)                      384       node_581        |                                         eltwise()[32]         
                                                                             node_584        |  
--------------------------------------------------------------------------------------------------------------------------------------------------------------
48   node_587 (Conv2D)             (1,4,4,144)     3,600/14,400    55,440    node_434        |                      +4,608(+8.3%)      conv2d()[34]          
--------------------------------------------------------------------------------------------------------------------------------------------------------------
49   node_437 (Nonlinearity)       (1,4,4,144)                     4,608     node_587        |                      -4,608(-100.0%)   
--------------------------------------------------------------------------------------------------------------------------------------------------------------
50   node_590 (Conv2D)             (1,4,4,144)     1,440/5,760     20,880    node_437        |                      +4,608(+22.1%)     conv2d()[35]          
--------------------------------------------------------------------------------------------------------------------------------------------------------------
51   node_440 (Nonlinearity)       (1,4,4,144)                     4,608     node_590        |                      -4,608(-100.0%)   
--------------------------------------------------------------------------------------------------------------------------------------------------------------
52   node_593 (Conv2D)             (1,4,4,24)      3,480/13,920    55,320    node_440        |                                         conv2d()[36]          
--------------------------------------------------------------------------------------------------------------------------------------------------------------
53   node_596 (Conv2D)             (1,4,4,24)      600/2,400       9,240     node_434        |                                         conv2d()[33]          
--------------------------------------------------------------------------------------------------------------------------------------------------------------
54   node_445 (Eltwise)            (1,4,4,24)                      384       node_593        |                                         eltwise()[37]         
                                                                             node_596        |  
--------------------------------------------------------------------------------------------------------------------------------------------------------------
55   node_599 (Conv2D)             (1,4,4,144)     3,600/14,400    55,440    node_445        |                      +4,608(+8.3%)      conv2d()[39]          
--------------------------------------------------------------------------------------------------------------------------------------------------------------
56   node_448 (Nonlinearity)       (1,4,4,144)                     4,608     node_599        |                      -4,608(-100.0%)   
--------------------------------------------------------------------------------------------------------------------------------------------------------------
57   node_602 (Conv2D)             (1,4,4,144)     1,440/5,760     20,880    node_448        |                      +4,608(+22.1%)     conv2d()[40]          
--------------------------------------------------------------------------------------------------------------------------------------------------------------
58   node_451 (Nonlinearity)       (1,4,4,144)                     4,608     node_602        |                      -4,608(-100.0%)   
--------------------------------------------------------------------------------------------------------------------------------------------------------------
59   node_605 (Conv2D)             (1,4,4,24)      3,480/13,920    55,320    node_451        |                                         conv2d()[41]          
--------------------------------------------------------------------------------------------------------------------------------------------------------------
60   node_608 (Conv2D)             (1,4,4,24)      600/2,400       9,240     node_445        |                                         conv2d()[38]          
--------------------------------------------------------------------------------------------------------------------------------------------------------------
61   node_456 (Eltwise)            (1,4,4,24)                      384       node_605        |                                         eltwise()[42]         
                                                                             node_608        |  
--------------------------------------------------------------------------------------------------------------------------------------------------------------
62   node_611 (Conv2D)             (1,4,4,144)     3,600/14,400    55,440    node_456        |                      +4,608(+8.3%)      conv2d()[43]          
--------------------------------------------------------------------------------------------------------------------------------------------------------------
63   node_459 (Nonlinearity)       (1,4,4,144)                     4,608     node_611        |                      -4,608(-100.0%)   
--------------------------------------------------------------------------------------------------------------------------------------------------------------
64   node_614 (Conv2D)             (1,2,2,144)     1,440/5,760     5,328     node_459        |                      +1,152(+21.6%)     conv2d()[44]          
--------------------------------------------------------------------------------------------------------------------------------------------------------------
65   node_462 (Nonlinearity)       (1,2,2,144)                     1,152     node_614        |                      -1,152(-100.0%)   
--------------------------------------------------------------------------------------------------------------------------------------------------------------
66   node_617 (Conv2D)             (1,2,2,32)      4,640/18,560    18,464    node_462        |                                         conv2d()[45]          
--------------------------------------------------------------------------------------------------------------------------------------------------------------
67   node_620 (Conv2D)             (1,2,2,192)     6,336/25,344    24,768    node_617        |                      +1,536(+6.2%)      conv2d()[47]          
--------------------------------------------------------------------------------------------------------------------------------------------------------------
68   node_467 (Nonlinearity)       (1,2,2,192)                     1,536     node_620        |                      -1,536(-100.0%)   
--------------------------------------------------------------------------------------------------------------------------------------------------------------
69   node_623 (Conv2D)             (1,2,2,192)     1,920/7,680     7,104     node_467        |                      +1,536(+21.6%)     conv2d()[48]          
--------------------------------------------------------------------------------------------------------------------------------------------------------------
70   node_470 (Nonlinearity)       (1,2,2,192)                     1,536     node_623        |                      -1,536(-100.0%)   
--------------------------------------------------------------------------------------------------------------------------------------------------------------
71   node_626 (Conv2D)             (1,2,2,32)      6,176/24,704    24,608    node_470        |                                         conv2d()[49]          
--------------------------------------------------------------------------------------------------------------------------------------------------------------
72   node_629 (Conv2D)             (1,2,2,32)      1,056/4,224     4,128     node_617        |                                         conv2d()[46]          
--------------------------------------------------------------------------------------------------------------------------------------------------------------
73   node_475 (Eltwise)            (1,2,2,32)                      128       node_626        |                                         eltwise()[50]         
                                                                             node_629        |  
--------------------------------------------------------------------------------------------------------------------------------------------------------------
74   node_632 (Conv2D)             (1,2,2,192)     6,336/25,344    24,768    node_475        |                      +1,536(+6.2%)      conv2d()[52]          
--------------------------------------------------------------------------------------------------------------------------------------------------------------
75   node_478 (Nonlinearity)       (1,2,2,192)                     1,536     node_632        |                      -1,536(-100.0%)   
--------------------------------------------------------------------------------------------------------------------------------------------------------------
76   node_635 (Conv2D)             (1,2,2,192)     1,920/7,680     7,104     node_478        |                      +1,536(+21.6%)     conv2d()[53]          
--------------------------------------------------------------------------------------------------------------------------------------------------------------
77   node_481 (Nonlinearity)       (1,2,2,192)                     1,536     node_635        |                      -1,536(-100.0%)   
--------------------------------------------------------------------------------------------------------------------------------------------------------------
78   node_638 (Conv2D)             (1,2,2,32)      6,176/24,704    24,608    node_481        |                                         conv2d()[54]          
--------------------------------------------------------------------------------------------------------------------------------------------------------------
79   node_641 (Conv2D)             (1,2,2,32)      1,056/4,224     4,128     node_475        |                                         conv2d()[51]          
--------------------------------------------------------------------------------------------------------------------------------------------------------------
80   node_486 (Eltwise)            (1,2,2,32)                      128       node_638        |                                         eltwise()[55]         
                                                                             node_641        |  
--------------------------------------------------------------------------------------------------------------------------------------------------------------
81   node_644 (Conv2D)             (1,2,2,192)     6,336/25,344    24,768    node_486        |                      +1,536(+6.2%)      conv2d()[57]          
--------------------------------------------------------------------------------------------------------------------------------------------------------------
82   node_489 (Nonlinearity)       (1,2,2,192)                     1,536     node_644        |                      -1,536(-100.0%)   
--------------------------------------------------------------------------------------------------------------------------------------------------------------
83   node_647 (Conv2D)             (1,2,2,192)     1,920/7,680     7,104     node_489        |                      +1,536(+21.6%)     conv2d()[58]          
--------------------------------------------------------------------------------------------------------------------------------------------------------------
84   node_492 (Nonlinearity)       (1,2,2,192)                     1,536     node_647        |                      -1,536(-100.0%)   
--------------------------------------------------------------------------------------------------------------------------------------------------------------
85   node_650 (Conv2D)             (1,2,2,64)      12,352/49,408   49,216    node_492        |                                         conv2d()[59]          
--------------------------------------------------------------------------------------------------------------------------------------------------------------
86   node_653 (Conv2D)             (1,2,2,64)      2,112/8,448     8,256     node_486        |                                         conv2d()[56]          
--------------------------------------------------------------------------------------------------------------------------------------------------------------
87   node_497 (Eltwise)            (1,2,2,64)                      256       node_650        |                                         eltwise()[60]         
                                                                             node_653        |  
--------------------------------------------------------------------------------------------------------------------------------------------------------------
88   node_656 (Conv2D)             (1,2,2,128)     8,320/33,280    32,896    node_497        |                      +1,536(+4.7%)      optimized_conv2d()[61]
--------------------------------------------------------------------------------------------------------------------------------------------------------------
89   node_500 (Nonlinearity)       (1,2,2,128)                     1,024     node_656        |                      -1,024(-100.0%)   
--------------------------------------------------------------------------------------------------------------------------------------------------------------
90   node_502 (Pool)               (1,1,1,128)                     512       node_500        |                      -512(-100.0%)     
--------------------------------------------------------------------------------------------------------------------------------------------------------------
91   node_504 (Reshape)            (1,1,1,128)                               node_502        |                                        
--------------------------------------------------------------------------------------------------------------------------------------------------------------
92   node_505 (Gemm)               (1,1,1,100)                     12,900    node_504        |   +51,600(+100.0%)                      gemm()/o[62]          
                                                                             linear_weight   |  
                                                                             linear_bias     |  
--------------------------------------------------------------------------------------------------------------------------------------------------------------
model/c-model: macc=1,429,156/1,429,156  weights=486,512/486,512  activations=--/50,960 io=--/49,552



Generated C-graph summary
------------------------------------------------------------------------------------------------------------------------
model name            : mobilenet_slim252
c-name                : network
c-node #              : 63
c-array #             : 170
activations size      : 50960 (1 segments)
weights size          : 486512 (1 segments)
macc                  : 1429156
inputs                : ['input_1_output']
outputs               : ['node_505_output']

C-Arrays (170)
--------------------------------------------------------------------------------------------------------
c_id   name (*_array)             item/size     domain/mem-pool           c-type        fmt     comment
--------------------------------------------------------------------------------------------------------
0      input_1_output             12288/49152   user/                     float         float   /input 
1      input_1_Transpose_output   12288/49152   activations/**default**   float         float          
2      node_506_output            1024/4096     activations/**default**   float         float          
3      node_518_output            1536/6144     activations/**default**   float         float          
4      node_509_output            6144/24576    activations/**default**   float         float          
5      node_512_output            6144/24576    activations/**default**   float         float          
6      node_515_output            1536/6144     activations/**default**   float         float          
7      node_374_output            1536/6144     activations/**default**   float         float          
8      node_521_output            9216/36864    activations/**default**   float         float          
9      node_524_output            2304/9216     activations/**default**   float         float          
10     node_527_output            512/2048      activations/**default**   float         float          
11     node_539_output            512/2048      activations/**default**   float         float          
12     node_530_output            3072/12288    activations/**default**   float         float          
13     node_533_output            3072/12288    activations/**default**   float         float          
14     node_536_output            512/2048      activations/**default**   float         float          
15     node_393_output            512/2048      activations/**default**   float         float          
16     node_542_output            3072/12288    activations/**default**   float         float          
17     node_545_output            768/3072      activations/**default**   float         float          
18     node_548_output            256/1024      activations/**default**   float         float          
19     node_560_output            256/1024      activations/**default**   float         float          
20     node_551_output            1536/6144     activations/**default**   float         float          
21     node_554_output            1536/6144     activations/**default**   float         float          
22     node_557_output            256/1024      activations/**default**   float         float          
23     node_412_output            256/1024      activations/**default**   float         float          
24     node_572_output            256/1024      activations/**default**   float         float          
25     node_563_output            1536/6144     activations/**default**   float         float          
26     node_566_output            1536/6144     activations/**default**   float         float          
27     node_569_output            256/1024      activations/**default**   float         float          
28     node_423_output            256/1024      activations/**default**   float         float          
29     node_584_output            384/1536      activations/**default**   float         float          
30     node_575_output            1536/6144     activations/**default**   float         float          
31     node_578_output            1536/6144     activations/**default**   float         float          
32     node_581_output            384/1536      activations/**default**   float         float          
33     node_434_output            384/1536      activations/**default**   float         float          
34     node_596_output            384/1536      activations/**default**   float         float          
35     node_587_output            2304/9216     activations/**default**   float         float          
36     node_590_output            2304/9216     activations/**default**   float         float          
37     node_593_output            384/1536      activations/**default**   float         float          
38     node_445_output            384/1536      activations/**default**   float         float          
39     node_608_output            384/1536      activations/**default**   float         float          
40     node_599_output            2304/9216     activations/**default**   float         float          
41     node_602_output            2304/9216     activations/**default**   float         float          
42     node_605_output            384/1536      activations/**default**   float         float          
43     node_456_output            384/1536      activations/**default**   float         float          
44     node_611_output            2304/9216     activations/**default**   float         float          
45     node_614_output            576/2304      activations/**default**   float         float          
46     node_617_output            128/512       activations/**default**   float         float          
47     node_629_output            128/512       activations/**default**   float         float          
48     node_620_output            768/3072      activations/**default**   float         float          
49     node_623_output            768/3072      activations/**default**   float         float          
50     node_626_output            128/512       activations/**default**   float         float          
51     node_475_output            128/512       activations/**default**   float         float          
52     node_641_output            128/512       activations/**default**   float         float          
53     node_632_output            768/3072      activations/**default**   float         float          
54     node_635_output            768/3072      activations/**default**   float         float          
55     node_638_output            128/512       activations/**default**   float         float          
56     node_486_output            128/512       activations/**default**   float         float          
57     node_653_output            256/1024      activations/**default**   float         float          
58     node_644_output            768/3072      activations/**default**   float         float          
59     node_647_output            768/3072      activations/**default**   float         float          
60     node_650_output            256/1024      activations/**default**   float         float          
61     node_497_output            256/1024      activations/**default**   float         float          
62     node_656_output            128/512       activations/**default**   float         float          
63     node_505_output            100/400       user/                     float         float   /output
64     node_506_weights           108/432       weights/                  const float   float          
65     node_506_bias              4/16          weights/                  const float   float          
66     node_518_weights           24/96         weights/                  const float   float          
67     node_518_bias              6/24          weights/                  const float   float          
68     node_509_weights           96/384        weights/                  const float   float          
69     node_509_bias              24/96         weights/                  const float   float          
70     node_512_weights           216/864       weights/                  const float   float          
71     node_512_bias              24/96         weights/                  const float   float          
72     node_515_weights           144/576       weights/                  const float   float          
73     node_515_bias              6/24          weights/                  const float   float          
74     node_521_weights           216/864       weights/                  const float   float          
75     node_521_bias              36/144        weights/                  const float   float          
76     node_524_weights           324/1296      weights/                  const float   float          
77     node_524_bias              36/144        weights/                  const float   float          
78     node_527_weights           288/1152      weights/                  const float   float          
79     node_527_bias              8/32          weights/                  const float   float          
80     node_539_weights           64/256        weights/                  const float   float          
81     node_539_bias              8/32          weights/                  const float   float          
82     node_530_weights           384/1536      weights/                  const float   float          
83     node_530_bias              48/192        weights/                  const float   float          
84     node_533_weights           432/1728      weights/                  const float   float          
85     node_533_bias              48/192        weights/                  const float   float          
86     node_536_weights           384/1536      weights/                  const float   float          
87     node_536_bias              8/32          weights/                  const float   float          
88     node_542_weights           384/1536      weights/                  const float   float          
89     node_542_bias              48/192        weights/                  const float   float          
90     node_545_weights           432/1728      weights/                  const float   float          
91     node_545_bias              48/192        weights/                  const float   float          
92     node_548_weights           768/3072      weights/                  const float   float          
93     node_548_bias              16/64         weights/                  const float   float          
94     node_560_weights           256/1024      weights/                  const float   float          
95     node_560_bias              16/64         weights/                  const float   float          
96     node_551_weights           1536/6144     weights/                  const float   float          
97     node_551_bias              96/384        weights/                  const float   float          
98     node_554_weights           864/3456      weights/                  const float   float          
99     node_554_bias              96/384        weights/                  const float   float          
100    node_557_weights           1536/6144     weights/                  const float   float          
101    node_557_bias              16/64         weights/                  const float   float          
102    node_572_weights           256/1024      weights/                  const float   float          
103    node_572_bias              16/64         weights/                  const float   float          
104    node_563_weights           1536/6144     weights/                  const float   float          
105    node_563_bias              96/384        weights/                  const float   float          
106    node_566_weights           864/3456      weights/                  const float   float          
107    node_566_bias              96/384        weights/                  const float   float          
108    node_569_weights           1536/6144     weights/                  const float   float          
109    node_569_bias              16/64         weights/                  const float   float          
110    node_584_weights           384/1536      weights/                  const float   float          
111    node_584_bias              24/96         weights/                  const float   float          
112    node_575_weights           1536/6144     weights/                  const float   float          
113    node_575_bias              96/384        weights/                  const float   float          
114    node_578_weights           864/3456      weights/                  const float   float          
115    node_578_bias              96/384        weights/                  const float   float          
116    node_581_weights           2304/9216     weights/                  const float   float          
117    node_581_bias              24/96         weights/                  const float   float          
118    node_596_weights           576/2304      weights/                  const float   float          
119    node_596_bias              24/96         weights/                  const float   float          
120    node_587_weights           3456/13824    weights/                  const float   float          
121    node_587_bias              144/576       weights/                  const float   float          
122    node_590_weights           1296/5184     weights/                  const float   float          
123    node_590_bias              144/576       weights/                  const float   float          
124    node_593_weights           3456/13824    weights/                  const float   float          
125    node_593_bias              24/96         weights/                  const float   float          
126    node_608_weights           576/2304      weights/                  const float   float          
127    node_608_bias              24/96         weights/                  const float   float          
128    node_599_weights           3456/13824    weights/                  const float   float          
129    node_599_bias              144/576       weights/                  const float   float          
130    node_602_weights           1296/5184     weights/                  const float   float          
131    node_602_bias              144/576       weights/                  const float   float          
132    node_605_weights           3456/13824    weights/                  const float   float          
133    node_605_bias              24/96         weights/                  const float   float          
134    node_611_weights           3456/13824    weights/                  const float   float          
135    node_611_bias              144/576       weights/                  const float   float          
136    node_614_weights           1296/5184     weights/                  const float   float          
137    node_614_bias              144/576       weights/                  const float   float          
138    node_617_weights           4608/18432    weights/                  const float   float          
139    node_617_bias              32/128        weights/                  const float   float          
140    node_629_weights           1024/4096     weights/                  const float   float          
141    node_629_bias              32/128        weights/                  const float   float          
142    node_620_weights           6144/24576    weights/                  const float   float          
143    node_620_bias              192/768       weights/                  const float   float          
144    node_623_weights           1728/6912     weights/                  const float   float          
145    node_623_bias              192/768       weights/                  const float   float          
146    node_626_weights           6144/24576    weights/                  const float   float          
147    node_626_bias              32/128        weights/                  const float   float          
148    node_641_weights           1024/4096     weights/                  const float   float          
149    node_641_bias              32/128        weights/                  const float   float          
150    node_632_weights           6144/24576    weights/                  const float   float          
151    node_632_bias              192/768       weights/                  const float   float          
152    node_635_weights           1728/6912     weights/                  const float   float          
153    node_635_bias              192/768       weights/                  const float   float          
154    node_638_weights           6144/24576    weights/                  const float   float          
155    node_638_bias              32/128        weights/                  const float   float          
156    node_653_weights           2048/8192     weights/                  const float   float          
157    node_653_bias              64/256        weights/                  const float   float          
158    node_644_weights           6144/24576    weights/                  const float   float          
159    node_644_bias              192/768       weights/                  const float   float          
160    node_647_weights           1728/6912     weights/                  const float   float          
161    node_647_bias              192/768       weights/                  const float   float          
162    node_650_weights           12288/49152   weights/                  const float   float          
163    node_650_bias              64/256        weights/                  const float   float          
164    node_656_weights           8192/32768    weights/                  const float   float          
165    node_656_bias              128/512       weights/                  const float   float          
166    linear_bias                100/400       weights/                  const float   float          
167    linear_weight              12800/51200   weights/                  const float   float          
168    node_506_scratch0          384/1536      activations/**default**   float         float          
169    node_656_scratch0          512/2048      activations/**default**   float         float          
--------------------------------------------------------------------------------------------------------

C-Layers (63)
----------------------------------------------------------------------------------------------------------------------
c_id   name (*_layer)      id   layer_type         macc     rom     tensors                       shape (array id)   
----------------------------------------------------------------------------------------------------------------------
0      input_1_Transpose   2    transpose          0        0       I: input_1_output             (1,3,64,64) (0)    
                                                                    O: input_1_Transpose_output   (1,64,64,3) (1)    
----------------------------------------------------------------------------------------------------------------------
1      node_506            2    optimized_conv2d   128004   448     I: input_1_Transpose_output   (1,64,64,3) (1)    
                                                                    S: node_506_scratch0                             
                                                                    W: node_506_weights           (3,4,3,3) (64)     
                                                                    W: node_506_bias              (1,1,1,4) (65)     
                                                                    O: node_506_output            (1,16,16,4) (2)    
----------------------------------------------------------------------------------------------------------------------
2      node_518            8    conv2d             6150     120     I: node_506_output            (1,16,16,4) (2)    
                                                                    W: node_518_weights           (4,6,1,1) (66)     
                                                                    W: node_518_bias              (1,1,1,6) (67)     
                                                                    O: node_518_output            (1,16,16,6) (3)    
----------------------------------------------------------------------------------------------------------------------
3      node_509            4    conv2d             36888    480     I: node_506_output            (1,16,16,4) (2)    
                                                                    W: node_509_weights           (4,24,1,1) (68)    
                                                                    W: node_509_bias              (1,1,1,24) (69)    
                                                                    O: node_509_output            (1,16,16,24) (4)   
----------------------------------------------------------------------------------------------------------------------
4      node_512            6    conv2d             67608    960     I: node_509_output            (1,16,16,24) (4)   
                                                                    W: node_512_weights           (1,24,3,3) (70)    
                                                                    W: node_512_bias              (1,1,1,24) (71)    
                                                                    O: node_512_output            (1,16,16,24) (5)   
----------------------------------------------------------------------------------------------------------------------
5      node_515            7    conv2d             36870    600     I: node_512_output            (1,16,16,24) (5)   
                                                                    W: node_515_weights           (24,6,1,1) (72)    
                                                                    W: node_515_bias              (1,1,1,6) (73)     
                                                                    O: node_515_output            (1,16,16,6) (6)    
----------------------------------------------------------------------------------------------------------------------
6      node_374            9    eltwise            1536     0       I: node_515_output            (1,16,16,6) (6)    
                                                                    I: node_518_output            (1,16,16,6) (3)    
                                                                    O: node_374_output            (1,16,16,6) (7)    
----------------------------------------------------------------------------------------------------------------------
7      node_521            11   conv2d             73764    1008    I: node_374_output            (1,16,16,6) (7)    
                                                                    W: node_521_weights           (6,36,1,1) (74)    
                                                                    W: node_521_bias              (1,1,1,36) (75)    
                                                                    O: node_521_output            (1,16,16,36) (8)   
----------------------------------------------------------------------------------------------------------------------
8      node_524            13   conv2d             25380    1440    I: node_521_output            (1,16,16,36) (8)   
                                                                    W: node_524_weights           (1,36,3,3) (76)    
                                                                    W: node_524_bias              (1,1,1,36) (77)    
                                                                    O: node_524_output            (1,8,8,36) (9)     
----------------------------------------------------------------------------------------------------------------------
9      node_527            14   conv2d             18440    1184    I: node_524_output            (1,8,8,36) (9)     
                                                                    W: node_527_weights           (36,8,1,1) (78)    
                                                                    W: node_527_bias              (1,1,1,8) (79)     
                                                                    O: node_527_output            (1,8,8,8) (10)     
----------------------------------------------------------------------------------------------------------------------
10     node_539            20   conv2d             4104     288     I: node_527_output            (1,8,8,8) (10)     
                                                                    W: node_539_weights           (8,8,1,1) (80)     
                                                                    W: node_539_bias              (1,1,1,8) (81)     
                                                                    O: node_539_output            (1,8,8,8) (11)     
----------------------------------------------------------------------------------------------------------------------
11     node_530            16   conv2d             30768    1728    I: node_527_output            (1,8,8,8) (10)     
                                                                    W: node_530_weights           (8,48,1,1) (82)    
                                                                    W: node_530_bias              (1,1,1,48) (83)    
                                                                    O: node_530_output            (1,8,8,48) (12)    
----------------------------------------------------------------------------------------------------------------------
12     node_533            18   conv2d             33840    1920    I: node_530_output            (1,8,8,48) (12)    
                                                                    W: node_533_weights           (1,48,3,3) (84)    
                                                                    W: node_533_bias              (1,1,1,48) (85)    
                                                                    O: node_533_output            (1,8,8,48) (13)    
----------------------------------------------------------------------------------------------------------------------
13     node_536            19   conv2d             24584    1568    I: node_533_output            (1,8,8,48) (13)    
                                                                    W: node_536_weights           (48,8,1,1) (86)    
                                                                    W: node_536_bias              (1,1,1,8) (87)     
                                                                    O: node_536_output            (1,8,8,8) (14)     
----------------------------------------------------------------------------------------------------------------------
14     node_393            21   eltwise            512      0       I: node_536_output            (1,8,8,8) (14)     
                                                                    I: node_539_output            (1,8,8,8) (11)     
                                                                    O: node_393_output            (1,8,8,8) (15)     
----------------------------------------------------------------------------------------------------------------------
15     node_542            23   conv2d             30768    1728    I: node_393_output            (1,8,8,8) (15)     
                                                                    W: node_542_weights           (8,48,1,1) (88)    
                                                                    W: node_542_bias              (1,1,1,48) (89)    
                                                                    O: node_542_output            (1,8,8,48) (16)    
----------------------------------------------------------------------------------------------------------------------
16     node_545            25   conv2d             8496     1920    I: node_542_output            (1,8,8,48) (16)    
                                                                    W: node_545_weights           (1,48,3,3) (90)    
                                                                    W: node_545_bias              (1,1,1,48) (91)    
                                                                    O: node_545_output            (1,4,4,48) (17)    
----------------------------------------------------------------------------------------------------------------------
17     node_548            26   conv2d             12304    3136    I: node_545_output            (1,4,4,48) (17)    
                                                                    W: node_548_weights           (48,16,1,1) (92)   
                                                                    W: node_548_bias              (1,1,1,16) (93)    
                                                                    O: node_548_output            (1,4,4,16) (18)    
----------------------------------------------------------------------------------------------------------------------
18     node_560            32   conv2d             4112     1088    I: node_548_output            (1,4,4,16) (18)    
                                                                    W: node_560_weights           (16,16,1,1) (94)   
                                                                    W: node_560_bias              (1,1,1,16) (95)    
                                                                    O: node_560_output            (1,4,4,16) (19)    
----------------------------------------------------------------------------------------------------------------------
19     node_551            28   conv2d             27744    6528    I: node_548_output            (1,4,4,16) (18)    
                                                                    W: node_551_weights           (16,96,1,1) (96)   
                                                                    W: node_551_bias              (1,1,1,96) (97)    
                                                                    O: node_551_output            (1,4,4,96) (20)    
----------------------------------------------------------------------------------------------------------------------
20     node_554            30   conv2d             16992    3840    I: node_551_output            (1,4,4,96) (20)    
                                                                    W: node_554_weights           (1,96,3,3) (98)    
                                                                    W: node_554_bias              (1,1,1,96) (99)    
                                                                    O: node_554_output            (1,4,4,96) (21)    
----------------------------------------------------------------------------------------------------------------------
21     node_557            31   conv2d             24592    6208    I: node_554_output            (1,4,4,96) (21)    
                                                                    W: node_557_weights           (96,16,1,1) (100)  
                                                                    W: node_557_bias              (1,1,1,16) (101)   
                                                                    O: node_557_output            (1,4,4,16) (22)    
----------------------------------------------------------------------------------------------------------------------
22     node_412            33   eltwise            256      0       I: node_557_output            (1,4,4,16) (22)    
                                                                    I: node_560_output            (1,4,4,16) (19)    
                                                                    O: node_412_output            (1,4,4,16) (23)    
----------------------------------------------------------------------------------------------------------------------
23     node_572            39   conv2d             4112     1088    I: node_412_output            (1,4,4,16) (23)    
                                                                    W: node_572_weights           (16,16,1,1) (102)  
                                                                    W: node_572_bias              (1,1,1,16) (103)   
                                                                    O: node_572_output            (1,4,4,16) (24)    
----------------------------------------------------------------------------------------------------------------------
24     node_563            35   conv2d             27744    6528    I: node_412_output            (1,4,4,16) (23)    
                                                                    W: node_563_weights           (16,96,1,1) (104)  
                                                                    W: node_563_bias              (1,1,1,96) (105)   
                                                                    O: node_563_output            (1,4,4,96) (25)    
----------------------------------------------------------------------------------------------------------------------
25     node_566            37   conv2d             16992    3840    I: node_563_output            (1,4,4,96) (25)    
                                                                    W: node_566_weights           (1,96,3,3) (106)   
                                                                    W: node_566_bias              (1,1,1,96) (107)   
                                                                    O: node_566_output            (1,4,4,96) (26)    
----------------------------------------------------------------------------------------------------------------------
26     node_569            38   conv2d             24592    6208    I: node_566_output            (1,4,4,96) (26)    
                                                                    W: node_569_weights           (96,16,1,1) (108)  
                                                                    W: node_569_bias              (1,1,1,16) (109)   
                                                                    O: node_569_output            (1,4,4,16) (27)    
----------------------------------------------------------------------------------------------------------------------
27     node_423            40   eltwise            256      0       I: node_569_output            (1,4,4,16) (27)    
                                                                    I: node_572_output            (1,4,4,16) (24)    
                                                                    O: node_423_output            (1,4,4,16) (28)    
----------------------------------------------------------------------------------------------------------------------
28     node_584            46   conv2d             6168     1632    I: node_423_output            (1,4,4,16) (28)    
                                                                    W: node_584_weights           (16,24,1,1) (110)  
                                                                    W: node_584_bias              (1,1,1,24) (111)   
                                                                    O: node_584_output            (1,4,4,24) (29)    
----------------------------------------------------------------------------------------------------------------------
29     node_575            42   conv2d             27744    6528    I: node_423_output            (1,4,4,16) (28)    
                                                                    W: node_575_weights           (16,96,1,1) (112)  
                                                                    W: node_575_bias              (1,1,1,96) (113)   
                                                                    O: node_575_output            (1,4,4,96) (30)    
----------------------------------------------------------------------------------------------------------------------
30     node_578            44   conv2d             16992    3840    I: node_575_output            (1,4,4,96) (30)    
                                                                    W: node_578_weights           (1,96,3,3) (114)   
                                                                    W: node_578_bias              (1,1,1,96) (115)   
                                                                    O: node_578_output            (1,4,4,96) (31)    
----------------------------------------------------------------------------------------------------------------------
31     node_581            45   conv2d             36888    9312    I: node_578_output            (1,4,4,96) (31)    
                                                                    W: node_581_weights           (96,24,1,1) (116)  
                                                                    W: node_581_bias              (1,1,1,24) (117)   
                                                                    O: node_581_output            (1,4,4,24) (32)    
----------------------------------------------------------------------------------------------------------------------
32     node_434            47   eltwise            384      0       I: node_581_output            (1,4,4,24) (32)    
                                                                    I: node_584_output            (1,4,4,24) (29)    
                                                                    O: node_434_output            (1,4,4,24) (33)    
----------------------------------------------------------------------------------------------------------------------
33     node_596            53   conv2d             9240     2400    I: node_434_output            (1,4,4,24) (33)    
                                                                    W: node_596_weights           (24,24,1,1) (118)  
                                                                    W: node_596_bias              (1,1,1,24) (119)   
                                                                    O: node_596_output            (1,4,4,24) (34)    
----------------------------------------------------------------------------------------------------------------------
34     node_587            49   conv2d             60048    14400   I: node_434_output            (1,4,4,24) (33)    
                                                                    W: node_587_weights           (24,144,1,1) (120) 
                                                                    W: node_587_bias              (1,1,1,144) (121)  
                                                                    O: node_587_output            (1,4,4,144) (35)   
----------------------------------------------------------------------------------------------------------------------
35     node_590            51   conv2d             25488    5760    I: node_587_output            (1,4,4,144) (35)   
                                                                    W: node_590_weights           (1,144,3,3) (122)  
                                                                    W: node_590_bias              (1,1,1,144) (123)  
                                                                    O: node_590_output            (1,4,4,144) (36)   
----------------------------------------------------------------------------------------------------------------------
36     node_593            52   conv2d             55320    13920   I: node_590_output            (1,4,4,144) (36)   
                                                                    W: node_593_weights           (144,24,1,1) (124) 
                                                                    W: node_593_bias              (1,1,1,24) (125)   
                                                                    O: node_593_output            (1,4,4,24) (37)    
----------------------------------------------------------------------------------------------------------------------
37     node_445            54   eltwise            384      0       I: node_593_output            (1,4,4,24) (37)    
                                                                    I: node_596_output            (1,4,4,24) (34)    
                                                                    O: node_445_output            (1,4,4,24) (38)    
----------------------------------------------------------------------------------------------------------------------
38     node_608            60   conv2d             9240     2400    I: node_445_output            (1,4,4,24) (38)    
                                                                    W: node_608_weights           (24,24,1,1) (126)  
                                                                    W: node_608_bias              (1,1,1,24) (127)   
                                                                    O: node_608_output            (1,4,4,24) (39)    
----------------------------------------------------------------------------------------------------------------------
39     node_599            56   conv2d             60048    14400   I: node_445_output            (1,4,4,24) (38)    
                                                                    W: node_599_weights           (24,144,1,1) (128) 
                                                                    W: node_599_bias              (1,1,1,144) (129)  
                                                                    O: node_599_output            (1,4,4,144) (40)   
----------------------------------------------------------------------------------------------------------------------
40     node_602            58   conv2d             25488    5760    I: node_599_output            (1,4,4,144) (40)   
                                                                    W: node_602_weights           (1,144,3,3) (130)  
                                                                    W: node_602_bias              (1,1,1,144) (131)  
                                                                    O: node_602_output            (1,4,4,144) (41)   
----------------------------------------------------------------------------------------------------------------------
41     node_605            59   conv2d             55320    13920   I: node_602_output            (1,4,4,144) (41)   
                                                                    W: node_605_weights           (144,24,1,1) (132) 
                                                                    W: node_605_bias              (1,1,1,24) (133)   
                                                                    O: node_605_output            (1,4,4,24) (42)    
----------------------------------------------------------------------------------------------------------------------
42     node_456            61   eltwise            384      0       I: node_605_output            (1,4,4,24) (42)    
                                                                    I: node_608_output            (1,4,4,24) (39)    
                                                                    O: node_456_output            (1,4,4,24) (43)    
----------------------------------------------------------------------------------------------------------------------
43     node_611            63   conv2d             60048    14400   I: node_456_output            (1,4,4,24) (43)    
                                                                    W: node_611_weights           (24,144,1,1) (134) 
                                                                    W: node_611_bias              (1,1,1,144) (135)  
                                                                    O: node_611_output            (1,4,4,144) (44)   
----------------------------------------------------------------------------------------------------------------------
44     node_614            65   conv2d             6480     5760    I: node_611_output            (1,4,4,144) (44)   
                                                                    W: node_614_weights           (1,144,3,3) (136)  
                                                                    W: node_614_bias              (1,1,1,144) (137)  
                                                                    O: node_614_output            (1,2,2,144) (45)   
----------------------------------------------------------------------------------------------------------------------
45     node_617            66   conv2d             18464    18560   I: node_614_output            (1,2,2,144) (45)   
                                                                    W: node_617_weights           (144,32,1,1) (138) 
                                                                    W: node_617_bias              (1,1,1,32) (139)   
                                                                    O: node_617_output            (1,2,2,32) (46)    
----------------------------------------------------------------------------------------------------------------------
46     node_629            72   conv2d             4128     4224    I: node_617_output            (1,2,2,32) (46)    
                                                                    W: node_629_weights           (32,32,1,1) (140)  
                                                                    W: node_629_bias              (1,1,1,32) (141)   
                                                                    O: node_629_output            (1,2,2,32) (47)    
----------------------------------------------------------------------------------------------------------------------
47     node_620            68   conv2d             26304    25344   I: node_617_output            (1,2,2,32) (46)    
                                                                    W: node_620_weights           (32,192,1,1) (142) 
                                                                    W: node_620_bias              (1,1,1,192) (143)  
                                                                    O: node_620_output            (1,2,2,192) (48)   
----------------------------------------------------------------------------------------------------------------------
48     node_623            70   conv2d             8640     7680    I: node_620_output            (1,2,2,192) (48)   
                                                                    W: node_623_weights           (1,192,3,3) (144)  
                                                                    W: node_623_bias              (1,1,1,192) (145)  
                                                                    O: node_623_output            (1,2,2,192) (49)   
----------------------------------------------------------------------------------------------------------------------
49     node_626            71   conv2d             24608    24704   I: node_623_output            (1,2,2,192) (49)   
                                                                    W: node_626_weights           (192,32,1,1) (146) 
                                                                    W: node_626_bias              (1,1,1,32) (147)   
                                                                    O: node_626_output            (1,2,2,32) (50)    
----------------------------------------------------------------------------------------------------------------------
50     node_475            73   eltwise            128      0       I: node_626_output            (1,2,2,32) (50)    
                                                                    I: node_629_output            (1,2,2,32) (47)    
                                                                    O: node_475_output            (1,2,2,32) (51)    
----------------------------------------------------------------------------------------------------------------------
51     node_641            79   conv2d             4128     4224    I: node_475_output            (1,2,2,32) (51)    
                                                                    W: node_641_weights           (32,32,1,1) (148)  
                                                                    W: node_641_bias              (1,1,1,32) (149)   
                                                                    O: node_641_output            (1,2,2,32) (52)    
----------------------------------------------------------------------------------------------------------------------
52     node_632            75   conv2d             26304    25344   I: node_475_output            (1,2,2,32) (51)    
                                                                    W: node_632_weights           (32,192,1,1) (150) 
                                                                    W: node_632_bias              (1,1,1,192) (151)  
                                                                    O: node_632_output            (1,2,2,192) (53)   
----------------------------------------------------------------------------------------------------------------------
53     node_635            77   conv2d             8640     7680    I: node_632_output            (1,2,2,192) (53)   
                                                                    W: node_635_weights           (1,192,3,3) (152)  
                                                                    W: node_635_bias              (1,1,1,192) (153)  
                                                                    O: node_635_output            (1,2,2,192) (54)   
----------------------------------------------------------------------------------------------------------------------
54     node_638            78   conv2d             24608    24704   I: node_635_output            (1,2,2,192) (54)   
                                                                    W: node_638_weights           (192,32,1,1) (154) 
                                                                    W: node_638_bias              (1,1,1,32) (155)   
                                                                    O: node_638_output            (1,2,2,32) (55)    
----------------------------------------------------------------------------------------------------------------------
55     node_486            80   eltwise            128      0       I: node_638_output            (1,2,2,32) (55)    
                                                                    I: node_641_output            (1,2,2,32) (52)    
                                                                    O: node_486_output            (1,2,2,32) (56)    
----------------------------------------------------------------------------------------------------------------------
56     node_653            86   conv2d             8256     8448    I: node_486_output            (1,2,2,32) (56)    
                                                                    W: node_653_weights           (32,64,1,1) (156)  
                                                                    W: node_653_bias              (1,1,1,64) (157)   
                                                                    O: node_653_output            (1,2,2,64) (57)    
----------------------------------------------------------------------------------------------------------------------
57     node_644            82   conv2d             26304    25344   I: node_486_output            (1,2,2,32) (56)    
                                                                    W: node_644_weights           (32,192,1,1) (158) 
                                                                    W: node_644_bias              (1,1,1,192) (159)  
                                                                    O: node_644_output            (1,2,2,192) (58)   
----------------------------------------------------------------------------------------------------------------------
58     node_647            84   conv2d             8640     7680    I: node_644_output            (1,2,2,192) (58)   
                                                                    W: node_647_weights           (1,192,3,3) (160)  
                                                                    W: node_647_bias              (1,1,1,192) (161)  
                                                                    O: node_647_output            (1,2,2,192) (59)   
----------------------------------------------------------------------------------------------------------------------
59     node_650            85   conv2d             49216    49408   I: node_647_output            (1,2,2,192) (59)   
                                                                    W: node_650_weights           (192,64,1,1) (162) 
                                                                    W: node_650_bias              (1,1,1,64) (163)   
                                                                    O: node_650_output            (1,2,2,64) (60)    
----------------------------------------------------------------------------------------------------------------------
60     node_497            87   eltwise            256      0       I: node_650_output            (1,2,2,64) (60)    
                                                                    I: node_653_output            (1,2,2,64) (57)    
                                                                    O: node_497_output            (1,2,2,64) (61)    
----------------------------------------------------------------------------------------------------------------------
61     node_656            90   optimized_conv2d   34432    33280   I: node_497_output            (1,2,2,64) (61)    
                                                                    S: node_656_scratch0                             
                                                                    W: node_656_weights           (64,128,1,1) (164) 
                                                                    W: node_656_bias              (1,1,1,128) (165)  
                                                                    O: node_656_output            (1,1,1,128) (62)   
----------------------------------------------------------------------------------------------------------------------
62     node_505            92   gemm               12900    51600   I: node_656_output            (1,1,1,128) (62)   
                                                                    I: linear_weight              (1,100,1,128) (167)
                                                                    I: linear_bias                (1,1,1,100) (166)  
                                                                    O: node_505_output            (1,1,1,100) (63)   
----------------------------------------------------------------------------------------------------------------------
 
Setting validation data...
 generating random data, size=10, seed=42, range=default
 I[1]: (10, 3, 64, 64)/float32, min/max=[0.000, 1.000], mean/std=[0.500, 0.288], input_1
 No output/reference samples are provided
 
Running the STM AI c-model (AI RUNNER)...(name=network, mode=stm32)

 STM Proto-buffer protocol 2.2 (SERIAL:COM6:115200:connected) ['network']
 
 Summary "network" - ['network']
 --------------------------------------------------------------------------------
 inputs/outputs       : 1/1
 input_1              : (1,3,64,64), float32, 49152 bytes, user
 ouputs_1             : (1,1,1,100), float32, 400 bytes, user
 n_nodes              : 63
 compile_datetime     : Jun 16 2022 22:50:30 (Thu Jun 16 22:49:44 2022)
 activations          : 50960 
 weights              : 486512 
 macc                 : 1429156
 --------------------------------------------------------------------------------
 runtime              : Protocol 2.2 - STM.AI (/gcc) 7.1.0 (Tools 7.1.0)
 capabilities         : ['IO_ONLY', 'PER_LAYER', 'PER_LAYER_WITH_DATA']
 device               : 0x434 - UNKNOW @180/180MHz fpu,art_lat=5,art_prefetch,art_icache,art_dcache
 --------------------------------------------------------------------------------
 
 Results for 10 inference(s) - average per inference
  device              : 0x434 - UNKNOW @180/180MHz fpu,art_lat=5,art_prefetch,art_icache,art_dcache
  duration            : 130.564ms
  CPU cycles          : 23501577
  cycles/MACC         : 16.44
  c_nodes             : 63
 
 c_id  m_id  desc                output                       ms          %        
 -----------------------------------------------------------------------------------
 0     2     Transpose (0x10a)   (1,64,64,3)/float32/49152B        5.798    4.4%   
 1     2     Conv2dPool (0x109)  (1,16,16,4)/float32/4096B        11.500    8.8%   
 2     8     Conv2D (0x103)      (1,16,16,6)/float32/6144B         1.367    1.0%   
 3     4     Conv2D (0x103)      (1,16,16,24)/float32/24576B       5.955    4.6%   
 4     6     Conv2D (0x103)      (1,16,16,24)/float32/24576B       9.306    7.1%   
 5     7     Conv2D (0x103)      (1,16,16,6)/float32/6144B         2.693    2.1%   
 6     9     Eltwise (0x113)     (1,16,16,6)/float32/6144B         0.090    0.1%   
 7     11    Conv2D (0x103)      (1,16,16,36)/float32/36864B       9.809    7.5%   
 8     13    Conv2D (0x103)      (1,8,8,36)/float32/9216B          3.459    2.6%   
 9     14    Conv2D (0x103)      (1,8,8,8)/float32/2048B           1.255    1.0%   
 10    20    Conv2D (0x103)      (1,8,8,8)/float32/2048B           0.573    0.4%   
 11    16    Conv2D (0x103)      (1,8,8,48)/float32/12288B         3.652    2.8%   
 12    18    Conv2D (0x103)      (1,8,8,48)/float32/12288B         4.391    3.4%   
 13    19    Conv2D (0x103)      (1,8,8,8)/float32/2048B           1.500    1.1%   
 14    21    Eltwise (0x113)     (1,8,8,8)/float32/2048B           0.032    0.0%   
 15    23    Conv2D (0x103)      (1,8,8,48)/float32/12288B         3.652    2.8%   
 16    25    Conv2D (0x103)      (1,4,4,48)/float32/3072B          1.102    0.8%   
 17    26    Conv2D (0x103)      (1,4,4,16)/float32/1024B          0.760    0.6%   
 18    32    Conv2D (0x103)      (1,4,4,16)/float32/1024B          0.356    0.3%   
 19    28    Conv2D (0x103)      (1,4,4,96)/float32/6144B          2.249    1.7%   
 20    30    Conv2D (0x103)      (1,4,4,96)/float32/6144B          1.994    1.5%   
 21    31    Conv2D (0x103)      (1,4,4,16)/float32/1024B          1.333    1.0%   
 22    33    Eltwise (0x113)     (1,4,4,16)/float32/1024B          0.018    0.0%   
 23    39    Conv2D (0x103)      (1,4,4,16)/float32/1024B          0.356    0.3%   
 24    35    Conv2D (0x103)      (1,4,4,96)/float32/6144B          2.249    1.7%   
 25    37    Conv2D (0x103)      (1,4,4,96)/float32/6144B          1.994    1.5%   
 26    38    Conv2D (0x103)      (1,4,4,16)/float32/1024B          1.333    1.0%   
 27    40    Eltwise (0x113)     (1,4,4,16)/float32/1024B          0.018    0.0%   
 28    46    Conv2D (0x103)      (1,4,4,24)/float32/1536B          0.529    0.4%   
 29    42    Conv2D (0x103)      (1,4,4,96)/float32/6144B          2.249    1.7%   
 30    44    Conv2D (0x103)      (1,4,4,96)/float32/6144B          1.994    1.5%   
 31    45    Conv2D (0x103)      (1,4,4,24)/float32/1536B          1.994    1.5%   
 32    47    Eltwise (0x113)     (1,4,4,24)/float32/1536B          0.025    0.0%   
 33    53    Conv2D (0x103)      (1,4,4,24)/float32/1536B          0.703    0.5%   
 34    49    Conv2D (0x103)      (1,4,4,144)/float32/9216B         4.412    3.4%   
 35    51    Conv2D (0x103)      (1,4,4,144)/float32/9216B         2.979    2.3%   
 36    52    Conv2D (0x103)      (1,4,4,24)/float32/1536B          2.852    2.2%   
 37    54    Eltwise (0x113)     (1,4,4,24)/float32/1536B          0.025    0.0%   
 38    60    Conv2D (0x103)      (1,4,4,24)/float32/1536B          0.703    0.5%   
 39    56    Conv2D (0x103)      (1,4,4,144)/float32/9216B         4.412    3.4%   
 40    58    Conv2D (0x103)      (1,4,4,144)/float32/9216B         2.979    2.3%   
 41    59    Conv2D (0x103)      (1,4,4,24)/float32/1536B          2.853    2.2%   
 42    61    Eltwise (0x113)     (1,4,4,24)/float32/1536B          0.025    0.0%   
 43    63    Conv2D (0x103)      (1,4,4,144)/float32/9216B         4.412    3.4%   
 44    65    Conv2D (0x103)      (1,2,2,144)/float32/2304B         0.749    0.6%   
 45    66    Conv2D (0x103)      (1,2,2,32)/float32/512B           0.966    0.7%   
 46    72    Conv2D (0x103)      (1,2,2,32)/float32/512B           0.284    0.2%   
 47    68    Conv2D (0x103)      (1,2,2,192)/float32/3072B         1.751    1.3%   
 48    70    Conv2D (0x103)      (1,2,2,192)/float32/3072B         0.823    0.6%   
 49    71    Conv2D (0x103)      (1,2,2,32)/float32/512B           1.252    1.0%   
 50    73    Eltwise (0x113)     (1,2,2,32)/float32/512B           0.011    0.0%   
 51    79    Conv2D (0x103)      (1,2,2,32)/float32/512B           0.284    0.2%   
 52    75    Conv2D (0x103)      (1,2,2,192)/float32/3072B         1.751    1.3%   
 53    77    Conv2D (0x103)      (1,2,2,192)/float32/3072B         0.823    0.6%   
 54    78    Conv2D (0x103)      (1,2,2,32)/float32/512B           1.252    1.0%   
 55    80    Eltwise (0x113)     (1,2,2,32)/float32/512B           0.011    0.0%   
 56    86    Conv2D (0x103)      (1,2,2,64)/float32/1024B          0.561    0.4%   
 57    82    Conv2D (0x103)      (1,2,2,192)/float32/3072B         1.751    1.3%   
 58    84    Conv2D (0x103)      (1,2,2,192)/float32/3072B         0.823    0.6%   
 59    85    Conv2D (0x103)      (1,2,2,64)/float32/1024B          2.498    1.9%   
 60    87    Eltwise (0x113)     (1,2,2,64)/float32/1024B          0.018    0.0%   
 61    90    Conv2dPool (0x109)  (1,1,1,128)/float32/512B          2.049    1.6%   
 62    92    GEMM (0x111)        (1,1,1,100)/float32/400B          0.968    0.7%   
 -----------------------------------------------------------------------------------
                                                                 130.564 ms
 
Saving validation data...
 output directory: C:\Users\Administrator\.stm32cubemx\network_output
 creating C:\Users\Administrator\.stm32cubemx\network_output\network_val_io.npz
 m_outputs_1: (10, 1, 1, 100)/float64, min/max=[-7.639, 10.373], mean/std=[0.021, 3.975], node_505
 c_outputs_1: (10, 1, 1, 100)/float32, min/max=[-7.639, 10.373], mean/std=[0.021, 3.975], node_505

 
Computing the metrics...

 Cross accuracy report #1 (reference vs C-model)
 ----------------------------------------------------------------------------------------------------
 notes: - data type is different: r/float64 instead p/float32
        - ACC metric is not computed ("--classifier" option can be used to force it)
        - the output of the reference model is used as ground truth/reference value
        - 10 samples (100 items per sample)

  acc=n.a., rmse=0.000000778, mae=0.000000589, l2r=0.000000196



Evaluation report (summary)
-------------------------------------------------------------------------------------------------------------------------------------
Output       acc    rmse          mae           l2r           mean          std           tensor                                    
-------------------------------------------------------------------------------------------------------------------------------------
X-cross #1   n.a.   0.000000778   0.000000589   0.000000196   0.000000025   0.000000778   node_505, ai_float, (1,1,1,100), m_id=[92]
-------------------------------------------------------------------------------------------------------------------------------------



Complexity report per layer - macc=1,429,156 weights=486,512 act=50,960 ram_io=49,552
-----------------------------------------------------------------------------------------------------
id   name       c_macc                    c_rom                     c_id   c_dur    l2r (X-CROSS)   
-----------------------------------------------------------------------------------------------------
0    input_1    |                  0.0%   |                  0.0%   [0]      4.4%                   
0    node_506   ||||||||||||||||   9.0%   |                  0.1%   [1]      8.8%                   
3    node_509   |||||              2.6%   |                  0.1%   [3]      4.6%                   
5    node_512   ||||||||           4.7%   |                  0.2%   [4]      7.1%                   
7    node_515   |||||              2.6%   |                  0.1%   [5]      2.1%                   
8    node_518   |                  0.4%   |                  0.0%   [2]      1.0%                   
9    node_374   |                  0.1%   |                  0.0%   [6]      0.1%                   
10   node_521   |||||||||          5.2%   |                  0.2%   [7]      7.5%                   
12   node_524   |||                1.8%   |                  0.3%   [8]      2.6%                   
14   node_527   |||                1.3%   |                  0.2%   [9]      1.0%                   
15   node_530   ||||               2.2%   |                  0.4%   [11]     2.8%                   
17   node_533   ||||               2.4%   |                  0.4%   [12]     3.4%                   
19   node_536   |||                1.7%   |                  0.3%   [13]     1.1%                   
20   node_539   |                  0.3%   |                  0.1%   [10]     0.4%                   
21   node_393   |                  0.0%   |                  0.0%   [14]     0.0%                   
22   node_542   ||||               2.2%   |                  0.4%   [15]     2.8%                   
24   node_545   |                  0.6%   |                  0.4%   [16]     0.8%                   
26   node_548   ||                 0.9%   |                  0.6%   [17]     0.6%                   
27   node_551   ||||               1.9%   ||                 1.3%   [19]     1.7%                   
29   node_554   ||                 1.2%   ||                 0.8%   [20]     1.5%                   
31   node_557   |||                1.7%   ||                 1.3%   [21]     1.0%                   
32   node_560   |                  0.3%   |                  0.2%   [18]     0.3%                   
33   node_412   |                  0.0%   |                  0.0%   [22]     0.0%                   
34   node_563   ||||               1.9%   ||                 1.3%   [24]     1.7%                   
36   node_566   ||                 1.2%   ||                 0.8%   [25]     1.5%                   
38   node_569   |||                1.7%   ||                 1.3%   [26]     1.0%                   
39   node_572   |                  0.3%   |                  0.2%   [23]     0.3%                   
40   node_423   |                  0.0%   |                  0.0%   [27]     0.0%                   
41   node_575   ||||               1.9%   ||                 1.3%   [29]     1.7%                   
43   node_578   ||                 1.2%   ||                 0.8%   [30]     1.5%                   
45   node_581   |||||              2.6%   |||                1.9%   [31]     1.5%                   
46   node_584   |                  0.4%   |                  0.3%   [28]     0.4%                   
47   node_434   |                  0.0%   |                  0.0%   [32]     0.0%                   
48   node_587   ||||||||           4.2%   |||||              3.0%   [34]     3.4%                   
50   node_590   |||                1.8%   ||                 1.2%   [35]     2.3%                   
52   node_593   |||||||            3.9%   |||||              2.9%   [36]     2.2%                   
53   node_596   ||                 0.6%   |                  0.5%   [33]     0.5%                   
54   node_445   |                  0.0%   |                  0.0%   [37]     0.0%                   
55   node_599   ||||||||           4.2%   |||||              3.0%   [39]     3.4%                   
57   node_602   |||                1.8%   ||                 1.2%   [40]     2.3%                   
59   node_605   |||||||            3.9%   |||||              2.9%   [41]     2.2%                   
60   node_608   ||                 0.6%   |                  0.5%   [38]     0.5%                   
61   node_456   |                  0.0%   |                  0.0%   [42]     0.0%                   
62   node_611   ||||||||           4.2%   |||||              3.0%   [43]     3.4%                   
64   node_614   |                  0.5%   ||                 1.2%   [44]     0.6%                   
66   node_617   |||                1.3%   ||||||             3.8%   [45]     0.7%                   
67   node_620   ||||               1.8%   ||||||||           5.2%   [47]     1.3%                   
69   node_623   ||                 0.6%   |||                1.6%   [48]     0.6%                   
71   node_626   |||                1.7%   ||||||||           5.1%   [49]     1.0%                   
72   node_629   |                  0.3%   ||                 0.9%   [46]     0.2%                   
73   node_475   |                  0.0%   |                  0.0%   [50]     0.0%                   
74   node_632   ||||               1.8%   ||||||||           5.2%   [52]     1.3%                   
76   node_635   ||                 0.6%   |||                1.6%   [53]     0.6%                   
78   node_638   |||                1.7%   ||||||||           5.1%   [54]     1.0%                   
79   node_641   |                  0.3%   ||                 0.9%   [51]     0.2%                   
80   node_486   |                  0.0%   |                  0.0%   [55]     0.0%                   
81   node_644   ||||               1.8%   ||||||||           5.2%   [57]     1.3%                   
83   node_647   ||                 0.6%   |||                1.6%   [58]     0.6%                   
85   node_650   ||||||             3.4%   |||||||||||||||   10.2%   [59]     1.9%                   
86   node_653   |                  0.6%   |||                1.7%   [56]     0.4%                   
87   node_497   |                  0.0%   |                  0.0%   [60]     0.0%                   
88   node_656   |||||              2.4%   ||||||||||         6.8%   [61]     1.6%                   
92   node_505   ||                 0.9%   ||||||||||||||||  10.6%   [62]     0.7%   1.95784132e-07 *
